…
I0120 00:05:46.167618 19029 net.cpp:322] The NetState phase (0) differed from the phase (1) specified by a rule in layer mnist
I0120 00:05:46.167938 19029 net.cpp:322] The NetState phase (0) differed from the phase (1) specified by a rule in layer accuracy
I0120 00:05:46.170380 19029 net.cpp:58] Initializing net from parameters: 
name: "LeNet"
state {
  phase: TRAIN
  level: 0
  stage: ""
}
layer {
  name: "mnist"
  type: "Data"
  top: "data"
  top: "label"
  include {
    phase: TRAIN
  }
  transform_param {
    scale: 0.00390625
  }
  data_param {
    source: "examples/casia100/casia100_train_lmdb"
    batch_size: 64
    backend: LMDB
  }
}
layer {
  name: "conv1"
  type: "Convolution"
  bottom: "data"
  top: "conv1"
  param {
    lr_mult: 1
  }
  param {
    lr_mult: 2
  }
  convolution_param {
    num_output: 20
    kernel_size: 5
    stride: 1
    weight_filler {
      type: "xavier"
    }
    bias_filler {
      type: "constant"
    }
  }
}
layer {
  name: "pool1"
  type: "Pooling"
  bottom: "conv1"
  top: "pool1"
  pooling_param {
    pool: MAX
    kernel_size: 2
    stride: 2
  }
}
layer {
  name: "conv2"
  type: "Convolution"
  bottom: "pool1"
  top: "conv2"
  param {
    lr_mult: 1
  }
  param {
    lr_mult: 2
  }
  convolution_param {
    num_output: 50
    kernel_size: 5
    stride: 1
    weight_filler {
      type: "xavier"
    }
    bias_filler {
      type: "constant"
    }
  }
}
layer {
  name: "pool2"
  type: "Pooling"
  bottom: "conv2"
  top: "pool2"
  pooling_param {
    pool: MAX
    kernel_size: 2
    stride: 2
  }
}
layer {
  name: "ip1"
  type: "InnerProduct"
  bottom: "pool2"
  top: "ip1"
  param {
    lr_mult: 1
  }
  param {
    lr_mult: 2
  }
  inner_product_param {
    num_output: 500
    weight_filler {
      type: "xavier"
    }
    bias_filler {
      type: "constant"
    }
  }
}
layer {
  name: "relu1"
  type: "ReLU"
  bottom: "ip1"
  top: "ip1"
}
layer {
  name: "ip2"
  type: "InnerProduct"
  bottom: "ip1"
  top: "ip2"
  param {
    lr_mult: 1
  }
  param {
    lr_mult: 2
  }
  inner_product_param {
    num_output: 100
    weight_filler {
      type: "xavier"
    }
    bias_filler {
      type: "constant"
    }
  }
}
layer {
  name: "loss"
  type: "SoftmaxWithLoss"
  bottom: "ip2"
  bottom: "label"
  top: "loss"
}
I0120 00:05:46.173588 19029 layer_factory.hpp:77] Creating layer mnist
I0120 00:05:46.179754 19029 net.cpp:100] Creating Layer mnist
I0120 00:05:46.180420 19029 net.cpp:408] mnist -> data
I0120 00:05:46.180855 19029 net.cpp:408] mnist -> label
I0120 00:05:46.184422 19033 db_lmdb.cpp:35] Opened lmdb examples/casia100/casia100_train_lmdb
I0120 00:05:46.190383 19029 data_layer.cpp:41] output data size: 64,3,64,64
I0120 00:05:46.424118 19029 net.cpp:150] Setting up mnist
I0120 00:05:46.426342 19029 net.cpp:157] Top shape: 64 3 64 64 (786432)
I0120 00:05:46.426878 19029 net.cpp:157] Top shape: 64 (64)
I0120 00:05:46.427027 19029 net.cpp:165] Memory required for data: 3145984
I0120 00:05:46.427462 19029 layer_factory.hpp:77] Creating layer conv1
I0120 00:05:46.428436 19029 net.cpp:100] Creating Layer conv1
I0120 00:05:46.429877 19029 net.cpp:434] conv1 <- data
I0120 00:05:46.430330 19029 net.cpp:408] conv1 -> conv1
I0120 00:05:46.434622 19029 net.cpp:150] Setting up conv1
I0120 00:05:46.435307 19029 net.cpp:157] Top shape: 64 20 60 60 (4608000)
I0120 00:05:46.435456 19029 net.cpp:165] Memory required for data: 21577984
I0120 00:05:46.435976 19029 layer_factory.hpp:77] Creating layer pool1
I0120 00:05:46.437255 19029 net.cpp:100] Creating Layer pool1
I0120 00:05:46.437463 19029 net.cpp:434] pool1 <- conv1
I0120 00:05:46.437681 19029 net.cpp:408] pool1 -> pool1
I0120 00:05:46.438801 19029 net.cpp:150] Setting up pool1
I0120 00:05:46.439530 19029 net.cpp:157] Top shape: 64 20 30 30 (1152000)
I0120 00:05:46.439699 19029 net.cpp:165] Memory required for data: 26185984
I0120 00:05:46.439833 19029 layer_factory.hpp:77] Creating layer conv2
I0120 00:05:46.439997 19029 net.cpp:100] Creating Layer conv2
I0120 00:05:46.440420 19029 net.cpp:434] conv2 <- pool1
I0120 00:05:46.440584 19029 net.cpp:408] conv2 -> conv2
I0120 00:05:46.444577 19029 net.cpp:150] Setting up conv2
I0120 00:05:46.444774 19029 net.cpp:157] Top shape: 64 50 26 26 (2163200)
I0120 00:05:46.444905 19029 net.cpp:165] Memory required for data: 34838784
I0120 00:05:46.445700 19029 layer_factory.hpp:77] Creating layer pool2
I0120 00:05:46.445871 19029 net.cpp:100] Creating Layer pool2
I0120 00:05:46.446004 19029 net.cpp:434] pool2 <- conv2
I0120 00:05:46.446457 19029 net.cpp:408] pool2 -> pool2
I0120 00:05:46.446633 19029 net.cpp:150] Setting up pool2
I0120 00:05:46.446789 19029 net.cpp:157] Top shape: 64 50 13 13 (540800)
I0120 00:05:46.446918 19029 net.cpp:165] Memory required for data: 37001984
I0120 00:05:46.447319 19029 layer_factory.hpp:77] Creating layer ip1
I0120 00:05:46.447481 19029 net.cpp:100] Creating Layer ip1
I0120 00:05:46.447613 19029 net.cpp:434] ip1 <- pool2
I0120 00:05:46.447762 19029 net.cpp:408] ip1 -> ip1
I0120 00:05:46.618275 19034 blocking_queue.cpp:50] Waiting for data
I0120 00:05:47.230890 19029 net.cpp:150] Setting up ip1
I0120 00:05:47.231650 19029 net.cpp:157] Top shape: 64 500 (32000)
I0120 00:05:47.231768 19029 net.cpp:165] Memory required for data: 37129984
I0120 00:05:47.232283 19029 layer_factory.hpp:77] Creating layer relu1
I0120 00:05:47.232389 19029 net.cpp:100] Creating Layer relu1
I0120 00:05:47.232482 19029 net.cpp:434] relu1 <- ip1
I0120 00:05:47.233219 19029 net.cpp:395] relu1 -> ip1 (in-place)
I0120 00:05:47.233446 19029 net.cpp:150] Setting up relu1
I0120 00:05:47.233711 19029 net.cpp:157] Top shape: 64 500 (32000)
I0120 00:05:47.233775 19029 net.cpp:165] Memory required for data: 37257984
I0120 00:05:47.233834 19029 layer_factory.hpp:77] Creating layer ip2
I0120 00:05:47.233901 19029 net.cpp:100] Creating Layer ip2
I0120 00:05:47.233960 19029 net.cpp:434] ip2 <- ip1
I0120 00:05:47.234386 19029 net.cpp:408] ip2 -> ip2
I0120 00:05:47.238268 19029 net.cpp:150] Setting up ip2
I0120 00:05:47.238544 19029 net.cpp:157] Top shape: 64 100 (6400)
I0120 00:05:47.238613 19029 net.cpp:165] Memory required for data: 37283584
I0120 00:05:47.238684 19029 layer_factory.hpp:77] Creating layer loss
I0120 00:05:47.238945 19029 net.cpp:100] Creating Layer loss
I0120 00:05:47.239315 19029 net.cpp:434] loss <- ip2
I0120 00:05:47.239383 19029 net.cpp:434] loss <- label
I0120 00:05:47.239452 19029 net.cpp:408] loss -> loss
I0120 00:05:47.239711 19029 layer_factory.hpp:77] Creating layer loss
…
I0120 00:05:47.243962 19029 solver.cpp:181] Creating test net (#0) specified by net file: examples/casia100/lenet_train_test.prototxt
I0120 00:05:47.245738 19029 net.cpp:322] The NetState phase (1) differed from the phase (0) specified by a rule in layer mnist
I0120 00:05:47.247936 19029 net.cpp:58] Initializing net from parameters: 
name: "LeNet"
state {
  phase: TEST
}
layer {
  name: "mnist"
  type: "Data"
  top: "data"
  top: "label"
  include {
    phase: TEST
  }
  transform_param {
    scale: 0.00390625
  }
  data_param {
    source: "examples/casia100/casia100_val_lmdb"
    batch_size: 60
    backend: LMDB
  }
}
layer {
  name: "conv1"
  type: "Convolution"
  bottom: "data"
  top: "conv1"
  param {
    lr_mult: 1
  }
  param {
    lr_mult: 2
  }
  convolution_param {
    num_output: 20
    kernel_size: 5
    stride: 1
    weight_filler {
      type: "xavier"
    }
    bias_filler {
      type: "constant"
    }
  }
}
layer {
  name: "pool1"
  type: "Pooling"
  bottom: "conv1"
  top: "pool1"
  pooling_param {
    pool: MAX
    kernel_size: 2
    stride: 2
  }
}
layer {
  name: "conv2"
  type: "Convolution"
  bottom: "pool1"
  top: "conv2"
  param {
    lr_mult: 1
  }
  param {
    lr_mult: 2
  }
  convolution_param {
    num_output: 50
    kernel_size: 5
    stride: 1
    weight_filler {
      type: "xavier"
    }
    bias_filler {
      type: "constant"
    }
  }
}
layer {
  name: "pool2"
  type: "Pooling"
  bottom: "conv2"
  top: "pool2"
  pooling_param {
    pool: MAX
    kernel_size: 2
    stride: 2
  }
}
layer {
  name: "ip1"
  type: "InnerProduct"
  bottom: "pool2"
  top: "ip1"
  param {
    lr_mult: 1
  }
  param {
    lr_mult: 2
  }
  inner_product_param {
    num_output: 500
    weight_filler {
      type: "xavier"
    }
    bias_filler {
      type: "constant"
    }
  }
}
layer {
  name: "relu1"
  type: "ReLU"
  bottom: "ip1"
  top: "ip1"
}
layer {
  name: "ip2"
  type: "InnerProduct"
  bottom: "ip1"
  top: "ip2"
  param {
    lr_mult: 1
  }
  param {
    lr_mult: 2
  }
  inner_product_param {
    num_output: 100
    weight_filler {
      type: "xavier"
    }
    bias_filler {
      type: "constant"
    }
  }
}
layer {
  name: "accuracy"
  type: "Accuracy"
  bottom: "ip2"
  bottom: "label"
  top: "accuracy"
  include {
    phase: TEST
  }
}
layer {
  name: "loss"
  type: "SoftmaxWithLoss"
  bottom: "ip2"
  bottom: "label"
  top: "loss"
}
I0120 00:05:47.251353 19029 layer_factory.hpp:77] Creating layer mnist
I0120 00:05:47.270627 19029 net.cpp:100] Creating Layer mnist
I0120 00:05:47.270890 19029 net.cpp:408] mnist -> data
I0120 00:05:47.270982 19029 net.cpp:408] mnist -> label
I0120 00:05:47.271884 19035 db_lmdb.cpp:35] Opened lmdb examples/casia100/casia100_val_lmdb
I0120 00:05:47.273701 19029 data_layer.cpp:41] output data size: 60,3,64,64
I0120 00:05:47.434286 19029 net.cpp:150] Setting up mnist
I0120 00:05:47.437950 19029 net.cpp:157] Top shape: 60 3 64 64 (737280)
I0120 00:05:47.438316 19029 net.cpp:157] Top shape: 60 (60)
I0120 00:05:47.438350 19029 net.cpp:165] Memory required for data: 2949360
I0120 00:05:47.438385 19029 layer_factory.hpp:77] Creating layer label_mnist_1_split
I0120 00:05:47.438825 19029 net.cpp:100] Creating Layer label_mnist_1_split
I0120 00:05:47.439153 19029 net.cpp:434] label_mnist_1_split <- label
I0120 00:05:47.439199 19029 net.cpp:408] label_mnist_1_split -> label_mnist_1_split_0
I0120 00:05:47.439244 19029 net.cpp:408] label_mnist_1_split -> label_mnist_1_split_1
I0120 00:05:47.439821 19029 net.cpp:150] Setting up label_mnist_1_split
I0120 00:05:47.439860 19029 net.cpp:157] Top shape: 60 (60)
I0120 00:05:47.439888 19029 net.cpp:157] Top shape: 60 (60)
I0120 00:05:47.445652 19029 net.cpp:165] Memory required for data: 2949840
I0120 00:05:47.445689 19029 layer_factory.hpp:77] Creating layer conv1
I0120 00:05:47.445745 19029 net.cpp:100] Creating Layer conv1
I0120 00:05:47.445773 19029 net.cpp:434] conv1 <- data
I0120 00:05:47.445819 19029 net.cpp:408] conv1 -> conv1
I0120 00:05:47.446321 19029 net.cpp:150] Setting up conv1
I0120 00:05:47.446565 19029 net.cpp:157] Top shape: 60 20 60 60 (4320000)
I0120 00:05:47.446593 19029 net.cpp:165] Memory required for data: 20229840
I0120 00:05:47.446696 19029 layer_factory.hpp:77] Creating layer pool1
I0120 00:05:47.446732 19029 net.cpp:100] Creating Layer pool1
I0120 00:05:47.446755 19029 net.cpp:434] pool1 <- conv1
I0120 00:05:47.446785 19029 net.cpp:408] pool1 -> pool1
I0120 00:05:47.446830 19029 net.cpp:150] Setting up pool1
I0120 00:05:47.447605 19029 net.cpp:157] Top shape: 60 20 30 30 (1080000)
I0120 00:05:47.447633 19029 net.cpp:165] Memory required for data: 24549840
I0120 00:05:47.447659 19029 layer_factory.hpp:77] Creating layer conv2
I0120 00:05:47.447708 19029 net.cpp:100] Creating Layer conv2
I0120 00:05:47.447731 19029 net.cpp:434] conv2 <- pool1
I0120 00:05:47.447763 19029 net.cpp:408] conv2 -> conv2
I0120 00:05:47.461971 19029 net.cpp:150] Setting up conv2
I0120 00:05:47.462676 19029 net.cpp:157] Top shape: 60 50 26 26 (2028000)
I0120 00:05:47.462750 19029 net.cpp:165] Memory required for data: 32661840
I0120 00:05:47.462829 19029 layer_factory.hpp:77] Creating layer pool2
I0120 00:05:47.462900 19029 net.cpp:100] Creating Layer pool2
I0120 00:05:47.462955 19029 net.cpp:434] pool2 <- conv2
I0120 00:05:47.463224 19029 net.cpp:408] pool2 -> pool2
I0120 00:05:47.463623 19029 net.cpp:150] Setting up pool2
I0120 00:05:47.463731 19029 net.cpp:157] Top shape: 60 50 13 13 (507000)
I0120 00:05:47.463826 19029 net.cpp:165] Memory required for data: 34689840
I0120 00:05:47.463920 19029 layer_factory.hpp:77] Creating layer ip1
I0120 00:05:47.464215 19029 net.cpp:100] Creating Layer ip1
I0120 00:05:47.464531 19029 net.cpp:434] ip1 <- pool2
I0120 00:05:47.464640 19029 net.cpp:408] ip1 -> ip1
I0120 00:05:47.876226 19029 net.cpp:150] Setting up ip1
I0120 00:05:47.876974 19029 net.cpp:157] Top shape: 60 500 (30000)
I0120 00:05:47.877209 19029 net.cpp:165] Memory required for data: 34809840
I0120 00:05:47.877310 19029 layer_factory.hpp:77] Creating layer relu1
I0120 00:05:47.877693 19029 net.cpp:100] Creating Layer relu1
I0120 00:05:47.877759 19029 net.cpp:434] relu1 <- ip1
I0120 00:05:47.877825 19029 net.cpp:395] relu1 -> ip1 (in-place)
I0120 00:05:47.877897 19029 net.cpp:150] Setting up relu1
I0120 00:05:47.877964 19029 net.cpp:157] Top shape: 60 500 (30000)
I0120 00:05:47.878267 19029 net.cpp:165] Memory required for data: 34929840
I0120 00:05:47.878327 19029 layer_factory.hpp:77] Creating layer ip2
I0120 00:05:47.878399 19029 net.cpp:100] Creating Layer ip2
I0120 00:05:47.878456 19029 net.cpp:434] ip2 <- ip1
I0120 00:05:47.878695 19029 net.cpp:408] ip2 -> ip2
I0120 00:05:47.881861 19029 net.cpp:150] Setting up ip2
I0120 00:05:47.882155 19029 net.cpp:157] Top shape: 60 100 (6000)
I0120 00:05:47.882236 19029 net.cpp:165] Memory required for data: 34953840
I0120 00:05:47.882341 19029 layer_factory.hpp:77] Creating layer ip2_ip2_0_split
I0120 00:05:47.882436 19029 net.cpp:100] Creating Layer ip2_ip2_0_split
I0120 00:05:47.882721 19029 net.cpp:434] ip2_ip2_0_split <- ip2
I0120 00:05:47.882818 19029 net.cpp:408] ip2_ip2_0_split -> ip2_ip2_0_split_0
I0120 00:05:47.882912 19029 net.cpp:408] ip2_ip2_0_split -> ip2_ip2_0_split_1
I0120 00:05:47.883172 19029 net.cpp:150] Setting up ip2_ip2_0_split
I0120 00:05:47.883469 19029 net.cpp:157] Top shape: 60 100 (6000)
I0120 00:05:47.883556 19029 net.cpp:157] Top shape: 60 100 (6000)
I0120 00:05:47.883630 19029 net.cpp:165] Memory required for data: 35001840
I0120 00:05:47.883715 19029 layer_factory.hpp:77] Creating layer accuracy
I0120 00:05:47.884366 19029 net.cpp:100] Creating Layer accuracy
I0120 00:05:47.884865 19029 net.cpp:434] accuracy <- ip2_ip2_0_split_0
I0120 00:05:47.884933 19029 net.cpp:434] accuracy <- label_mnist_1_split_0
I0120 00:05:47.885164 19029 net.cpp:408] accuracy -> accuracy
…
