…
I0129 03:05:40.247831  2535 net.cpp:322] The NetState phase (0) differed from the phase (1) specified by a rule in layer mnist
I0129 03:05:40.248517  2535 net.cpp:322] The NetState phase (0) differed from the phase (1) specified by a rule in layer accuracy
I0129 03:05:40.248937  2535 net.cpp:58] Initializing net from parameters: 
name: "LeNet"
state {
  phase: TRAIN
  level: 0
  stage: ""
}
layer {
  name: "mnist"
  type: "Data"
  top: "data"
  top: "label"
  include {
    phase: TRAIN
  }
  transform_param {
    scale: 0.00390625
  }
  data_param {
    source: "examples/casia100/casia100_train_lmdb"
    batch_size: 64
    backend: LMDB
  }
}
layer {
  name: "conv1"
  type: "Convolution"
  bottom: "data"
  top: "conv1"
  param {
    lr_mult: 1
  }
  param {
    lr_mult: 2
  }
  convolution_param {
    num_output: 20
    kernel_size: 5
    stride: 1
    weight_filler {
      type: "xavier"
    }
    bias_filler {
      type: "constant"
    }
  }
}
layer {
  name: "pool1"
  type: "Pooling"
  bottom: "conv1"
  top: "pool1"
  pooling_param {
    pool: MAX
    kernel_size: 2
    stride: 2
  }
}
layer {
  name: "conv2"
  type: "Convolution"
  bottom: "pool1"
  top: "conv2"
  param {
    lr_mult: 1
  }
  param {
    lr_mult: 2
  }
  convolution_param {
    num_output: 50
    kernel_size: 5
    stride: 1
    weight_filler {
      type: "xavier"
    }
    bias_filler {
      type: "constant"
    }
  }
}
layer {
  name: "pool2"
  type: "Pooling"
  bottom: "conv2"
  top: "pool2"
  pooling_param {
    pool: MAX
    kernel_size: 2
    stride: 2
  }
}
layer {
  name: "ip1"
  type: "InnerProduct"
  bottom: "pool2"
  top: "ip1"
  param {
    lr_mult: 1
  }
  param {
    lr_mult: 2
  }
  inner_product_param {
    num_output: 500
    weight_filler {
      type: "xavier"
    }
    bias_filler {
      type: "constant"
    }
  }
}
layer {
  name: "relu1"
  type: "ReLU"
  bottom: "ip1"
  top: "ip1"
}
layer {
  name: "ip2"
  type: "InnerProduct"
  bottom: "ip1"
  top: "ip2"
  param {
    lr_mult: 1
  }
  param {
    lr_mult: 2
  }
  inner_product_param {
    num_output: 100
    weight_filler {
      type: "xavier"
    }
    bias_filler {
      type: "constant"
    }
  }
}
layer {
  name: "loss"
  type: "SoftmaxWithLoss"
  bottom: "ip2"
  bottom: "label"
  top: "loss"
}
I0129 03:05:40.254298  2535 layer_factory.hpp:77] Creating layer mnist
I0129 03:05:40.297585  2535 net.cpp:100] Creating Layer mnist
I0129 03:05:40.298472  2535 net.cpp:408] mnist -> data
I0129 03:05:40.299356  2535 net.cpp:408] mnist -> label
I0129 03:05:40.374982  2538 db_lmdb.cpp:35] Opened lmdb examples/casia100/casia100_train_lmdb
I0129 03:05:40.573963  2535 data_layer.cpp:41] output data size: 64,3,64,64
I0129 03:05:41.222018  2535 net.cpp:150] Setting up mnist
I0129 03:05:41.224090  2535 net.cpp:157] Top shape: 64 3 64 64 (786432)
I0129 03:05:41.224642  2535 net.cpp:157] Top shape: 64 (64)
I0129 03:05:41.225031  2535 net.cpp:165] Memory required for data: 3145984
I0129 03:05:41.225157  2535 layer_factory.hpp:77] Creating layer conv1
I0129 03:05:41.226358  2535 net.cpp:100] Creating Layer conv1
I0129 03:05:41.226682  2535 net.cpp:434] conv1 <- data
I0129 03:05:41.227118  2535 net.cpp:408] conv1 -> conv1
I0129 03:05:41.292970  2539 blocking_queue.cpp:50] Waiting for data
I0129 03:05:41.295269  2535 net.cpp:150] Setting up conv1
I0129 03:05:41.296244  2535 net.cpp:157] Top shape: 64 20 60 60 (4608000)
I0129 03:05:41.296613  2535 net.cpp:165] Memory required for data: 21577984
I0129 03:05:41.297559  2535 layer_factory.hpp:77] Creating layer pool1
I0129 03:05:41.298358  2535 net.cpp:100] Creating Layer pool1
I0129 03:05:41.301118  2535 net.cpp:434] pool1 <- conv1
I0129 03:05:41.301198  2535 net.cpp:408] pool1 -> pool1
I0129 03:05:41.302309  2535 net.cpp:150] Setting up pool1
I0129 03:05:41.302711  2535 net.cpp:157] Top shape: 64 20 30 30 (1152000)
I0129 03:05:41.303072  2535 net.cpp:165] Memory required for data: 26185984
I0129 03:05:41.303102  2535 layer_factory.hpp:77] Creating layer conv2
I0129 03:05:41.303159  2535 net.cpp:100] Creating Layer conv2
I0129 03:05:41.303185  2535 net.cpp:434] conv2 <- pool1
I0129 03:05:41.303223  2535 net.cpp:408] conv2 -> conv2
I0129 03:05:41.320255  2535 net.cpp:150] Setting up conv2
I0129 03:05:41.320579  2535 net.cpp:157] Top shape: 64 50 26 26 (2163200)
I0129 03:05:41.320619  2535 net.cpp:165] Memory required for data: 34838784
I0129 03:05:41.320682  2535 layer_factory.hpp:77] Creating layer pool2
I0129 03:05:41.321000  2535 net.cpp:100] Creating Layer pool2
I0129 03:05:41.321041  2535 net.cpp:434] pool2 <- conv2
I0129 03:05:41.321074  2535 net.cpp:408] pool2 -> pool2
I0129 03:05:41.321133  2535 net.cpp:150] Setting up pool2
I0129 03:05:41.321168  2535 net.cpp:157] Top shape: 64 50 13 13 (540800)
I0129 03:05:41.321190  2535 net.cpp:165] Memory required for data: 37001984
I0129 03:05:41.321213  2535 layer_factory.hpp:77] Creating layer ip1
I0129 03:05:41.321251  2535 net.cpp:100] Creating Layer ip1
I0129 03:05:41.321275  2535 net.cpp:434] ip1 <- pool2
I0129 03:05:41.321310  2535 net.cpp:408] ip1 -> ip1
I0129 03:05:42.622784  2535 net.cpp:150] Setting up ip1
I0129 03:05:42.623008  2535 net.cpp:157] Top shape: 64 500 (32000)
I0129 03:05:42.623034  2535 net.cpp:165] Memory required for data: 37129984
I0129 03:05:42.623075  2535 layer_factory.hpp:77] Creating layer relu1
I0129 03:05:42.623100  2535 net.cpp:100] Creating Layer relu1
I0129 03:05:42.623113  2535 net.cpp:434] relu1 <- ip1
I0129 03:05:42.623132  2535 net.cpp:395] relu1 -> ip1 (in-place)
I0129 03:05:42.623631  2535 net.cpp:150] Setting up relu1
I0129 03:05:42.623667  2535 net.cpp:157] Top shape: 64 500 (32000)
I0129 03:05:42.623680  2535 net.cpp:165] Memory required for data: 37257984
I0129 03:05:42.623695  2535 layer_factory.hpp:77] Creating layer ip2
I0129 03:05:42.623719  2535 net.cpp:100] Creating Layer ip2
I0129 03:05:42.623733  2535 net.cpp:434] ip2 <- ip1
I0129 03:05:42.623755  2535 net.cpp:408] ip2 -> ip2
I0129 03:05:42.631700  2535 net.cpp:150] Setting up ip2
I0129 03:05:42.632010  2535 net.cpp:157] Top shape: 64 100 (6400)
I0129 03:05:42.632079  2535 net.cpp:165] Memory required for data: 37283584
I0129 03:05:42.632154  2535 layer_factory.hpp:77] Creating layer loss
I0129 03:05:42.632519  2535 net.cpp:100] Creating Layer loss
I0129 03:05:42.632784  2535 net.cpp:434] loss <- ip2
I0129 03:05:42.632858  2535 net.cpp:434] loss <- label
I0129 03:05:42.632927  2535 net.cpp:408] loss -> loss
I0129 03:05:42.636710  2535 layer_factory.hpp:77] Creating layer loss
…
I0129 03:05:42.641911  2535 solver.cpp:181] Creating test net (#0) specified by net file: examples/casia100/lenet_train_test.prototxt
I0129 03:05:42.642592  2535 net.cpp:322] The NetState phase (1) differed from the phase (0) specified by a rule in layer mnist
I0129 03:05:42.642989  2535 net.cpp:58] Initializing net from parameters: 
name: "LeNet"
state {
  phase: TEST
}
layer {
  name: "mnist"
  type: "Data"
  top: "data"
  top: "label"
  include {
    phase: TEST
  }
  transform_param {
    scale: 0.00390625
  }
  data_param {
    source: "examples/casia100/casia100_val_lmdb"
    batch_size: 60
    backend: LMDB
  }
}
layer {
  name: "conv1"
  type: "Convolution"
  bottom: "data"
  top: "conv1"
  param {
    lr_mult: 1
  }
  param {
    lr_mult: 2
  }
  convolution_param {
    num_output: 20
    kernel_size: 5
    stride: 1
    weight_filler {
      type: "xavier"
    }
    bias_filler {
      type: "constant"
    }
  }
}
layer {
  name: "pool1"
  type: "Pooling"
  bottom: "conv1"
  top: "pool1"
  pooling_param {
    pool: MAX
    kernel_size: 2
    stride: 2
  }
}
layer {
  name: "conv2"
  type: "Convolution"
  bottom: "pool1"
  top: "conv2"
  param {
    lr_mult: 1
  }
  param {
    lr_mult: 2
  }
  convolution_param {
    num_output: 50
    kernel_size: 5
    stride: 1
    weight_filler {
      type: "xavier"
    }
    bias_filler {
      type: "constant"
    }
  }
}
layer {
  name: "pool2"
  type: "Pooling"
  bottom: "conv2"
  top: "pool2"
  pooling_param {
    pool: MAX
    kernel_size: 2
    stride: 2
  }
}
layer {
  name: "ip1"
  type: "InnerProduct"
  bottom: "pool2"
  top: "ip1"
  param {
    lr_mult: 1
  }
  param {
    lr_mult: 2
  }
  inner_product_param {
    num_output: 500
    weight_filler {
      type: "xavier"
    }
    bias_filler {
      type: "constant"
    }
  }
}
layer {
  name: "relu1"
  type: "ReLU"
  bottom: "ip1"
  top: "ip1"
}
layer {
  name: "ip2"
  type: "InnerProduct"
  bottom: "ip1"
  top: "ip2"
  param {
    lr_mult: 1
  }
  param {
    lr_mult: 2
  }
  inner_product_param {
    num_output: 100
    weight_filler {
      type: "xavier"
    }
    bias_filler {
      type: "constant"
    }
  }
}
layer {
  name: "accuracy"
  type: "Accuracy"
  bottom: "ip2"
  bottom: "label"
  top: "accuracy"
  include {
    phase: TEST
  }
}
layer {
  name: "loss"
  type: "SoftmaxWithLoss"
  bottom: "ip2"
  bottom: "label"
  top: "loss"
}
I0129 03:05:42.644867  2535 layer_factory.hpp:77] Creating layer mnist
I0129 03:05:42.646317  2535 net.cpp:100] Creating Layer mnist
I0129 03:05:42.646620  2535 net.cpp:408] mnist -> data
I0129 03:05:42.646721  2535 net.cpp:408] mnist -> label
I0129 03:05:42.708645  2540 db_lmdb.cpp:35] Opened lmdb examples/casia100/casia100_val_lmdb
I0129 03:05:42.725117  2535 data_layer.cpp:41] output data size: 60,3,64,64
I0129 03:05:43.196749  2535 net.cpp:150] Setting up mnist
I0129 03:05:43.196981  2535 net.cpp:157] Top shape: 60 3 64 64 (737280)
I0129 03:05:43.197010  2535 net.cpp:157] Top shape: 60 (60)
I0129 03:05:43.197022  2535 net.cpp:165] Memory required for data: 2949360
I0129 03:05:43.197041  2535 layer_factory.hpp:77] Creating layer label_mnist_1_split
I0129 03:05:43.198539  2535 net.cpp:100] Creating Layer label_mnist_1_split
I0129 03:05:43.198804  2535 net.cpp:434] label_mnist_1_split <- label
I0129 03:05:43.198837  2535 net.cpp:408] label_mnist_1_split -> label_mnist_1_split_0
I0129 03:05:43.198863  2535 net.cpp:408] label_mnist_1_split -> label_mnist_1_split_1
I0129 03:05:43.200084  2535 net.cpp:150] Setting up label_mnist_1_split
I0129 03:05:43.200204  2535 net.cpp:157] Top shape: 60 (60)
I0129 03:05:43.200219  2535 net.cpp:157] Top shape: 60 (60)
I0129 03:05:43.200228  2535 net.cpp:165] Memory required for data: 2949840
I0129 03:05:43.200238  2535 layer_factory.hpp:77] Creating layer conv1
I0129 03:05:43.200264  2535 net.cpp:100] Creating Layer conv1
I0129 03:05:43.200274  2535 net.cpp:434] conv1 <- data
I0129 03:05:43.200422  2535 net.cpp:408] conv1 -> conv1
I0129 03:05:43.201972  2535 net.cpp:150] Setting up conv1
I0129 03:05:43.202487  2535 net.cpp:157] Top shape: 60 20 60 60 (4320000)
I0129 03:05:43.202502  2535 net.cpp:165] Memory required for data: 20229840
I0129 03:05:43.202833  2535 layer_factory.hpp:77] Creating layer pool1
I0129 03:05:43.202865  2535 net.cpp:100] Creating Layer pool1
I0129 03:05:43.202882  2535 net.cpp:434] pool1 <- conv1
I0129 03:05:43.202900  2535 net.cpp:408] pool1 -> pool1
I0129 03:05:43.202934  2535 net.cpp:150] Setting up pool1
I0129 03:05:43.202955  2535 net.cpp:157] Top shape: 60 20 30 30 (1080000)
I0129 03:05:43.202968  2535 net.cpp:165] Memory required for data: 24549840
I0129 03:05:43.203197  2535 layer_factory.hpp:77] Creating layer conv2
I0129 03:05:43.203575  2535 net.cpp:100] Creating Layer conv2
I0129 03:05:43.203761  2535 net.cpp:434] conv2 <- pool1
I0129 03:05:43.203785  2535 net.cpp:408] conv2 -> conv2
I0129 03:05:43.210857  2535 net.cpp:150] Setting up conv2
I0129 03:05:43.211128  2535 net.cpp:157] Top shape: 60 50 26 26 (2028000)
I0129 03:05:43.211164  2535 net.cpp:165] Memory required for data: 32661840
I0129 03:05:43.211207  2535 layer_factory.hpp:77] Creating layer pool2
I0129 03:05:43.211238  2535 net.cpp:100] Creating Layer pool2
I0129 03:05:43.211254  2535 net.cpp:434] pool2 <- conv2
I0129 03:05:43.211275  2535 net.cpp:408] pool2 -> pool2
I0129 03:05:43.211673  2535 net.cpp:150] Setting up pool2
I0129 03:05:43.211704  2535 net.cpp:157] Top shape: 60 50 13 13 (507000)
I0129 03:05:43.211719  2535 net.cpp:165] Memory required for data: 34689840
I0129 03:05:43.211732  2535 layer_factory.hpp:77] Creating layer ip1
I0129 03:05:43.211910  2535 net.cpp:100] Creating Layer ip1
I0129 03:05:43.211928  2535 net.cpp:434] ip1 <- pool2
I0129 03:05:43.211948  2535 net.cpp:408] ip1 -> ip1
I0129 03:05:44.074496  2535 net.cpp:150] Setting up ip1
I0129 03:05:44.074836  2535 net.cpp:157] Top shape: 60 500 (30000)
I0129 03:05:44.074856  2535 net.cpp:165] Memory required for data: 34809840
I0129 03:05:44.074885  2535 layer_factory.hpp:77] Creating layer relu1
I0129 03:05:44.074905  2535 net.cpp:100] Creating Layer relu1
I0129 03:05:44.074916  2535 net.cpp:434] relu1 <- ip1
I0129 03:05:44.074930  2535 net.cpp:395] relu1 -> ip1 (in-place)
I0129 03:05:44.074950  2535 net.cpp:150] Setting up relu1
I0129 03:05:44.075029  2535 net.cpp:157] Top shape: 60 500 (30000)
I0129 03:05:44.075078  2535 net.cpp:165] Memory required for data: 34929840
I0129 03:05:44.075721  2535 layer_factory.hpp:77] Creating layer ip2
I0129 03:05:44.076004  2535 net.cpp:100] Creating Layer ip2
I0129 03:05:44.076053  2535 net.cpp:434] ip2 <- ip1
I0129 03:05:44.076102  2535 net.cpp:408] ip2 -> ip2
I0129 03:05:44.081836  2535 net.cpp:150] Setting up ip2
I0129 03:05:44.082149  2535 net.cpp:157] Top shape: 60 100 (6000)
I0129 03:05:44.082371  2535 net.cpp:165] Memory required for data: 34953840
I0129 03:05:44.082466  2535 layer_factory.hpp:77] Creating layer ip2_ip2_0_split
I0129 03:05:44.082720  2535 net.cpp:100] Creating Layer ip2_ip2_0_split
I0129 03:05:44.082784  2535 net.cpp:434] ip2_ip2_0_split <- ip2
I0129 03:05:44.082866  2535 net.cpp:408] ip2_ip2_0_split -> ip2_ip2_0_split_0
I0129 03:05:44.083125  2535 net.cpp:408] ip2_ip2_0_split -> ip2_ip2_0_split_1
I0129 03:05:44.083536  2535 net.cpp:150] Setting up ip2_ip2_0_split
I0129 03:05:44.083797  2535 net.cpp:157] Top shape: 60 100 (6000)
I0129 03:05:44.083865  2535 net.cpp:157] Top shape: 60 100 (6000)
I0129 03:05:44.083921  2535 net.cpp:165] Memory required for data: 35001840
I0129 03:05:44.083977  2535 layer_factory.hpp:77] Creating layer accuracy
I0129 03:05:44.084357  2535 net.cpp:100] Creating Layer accuracy
I0129 03:05:44.084437  2535 net.cpp:434] accuracy <- ip2_ip2_0_split_0
I0129 03:05:44.084506  2535 net.cpp:434] accuracy <- label_mnist_1_split_0
I0129 03:05:44.084573  2535 net.cpp:408] accuracy -> accuracy
…
